data.pth (torch, 39679 bytes, 6 tensors)

l1.weight f4 [8, 441]
1.284448 -1.5044572 2.4025784 0.3671312 1.6671151 1.7326566 -0.18339117 0.48298833
0.4000535 0.93892616 -0.05541346 0.06913068 -0.5793656 1.0971794 -0.47559014 1.1286409
1.1646004 0.5062293 -0.7785284 -1.3541995 1.7096648 1.0791733 -0.35275757 1.8760356
1.7740142 0.875844 0.6728408 2.5218904 1.2131629 0.91840404 0.15460272 1.7468807
2.759457 1.588702 2.1499789 0.93224126 -0.13874479 1.2213664 1.0766547 1.1345276
0.31205645 1.850473 1.2224982 2.5923793 1.5447844 0.56766933 1.8479692 -0.017959759
1.1935933 2.6715844 1.1299291 1.1587222 1.4052223 3.316195 -0.24902649 0.7100544
2.2379441 1.8168498 0.90158993 0.8675866 0.83168125 -0.5481848 2.3030038 0.11972802
1.3963833 0.75161546 -0.22326493 -1.1846404 0.14030609 0.86751294 0.26313025 2.3011081
0.26260018 3.0785482 -1.2986201 0.5057677 -0.14054716 -0.74367875 1.4722825 1.5962539
0.6135229 1.0773323 2.233449 0.9752131 0.168217 0.24283607 0.6823888 -0.40578172
0.88502 0.20042041 0.4711647 1.3029736 0.012212867 1.8996825 1.8543465 -0.5469048
1.7641048 -1.9788117 -0.33086678 -1.1621946 0.8111497 0.40028515 5.0033793 2.482111
0.4326189 0.04685084 -0.22081584 3.459893 2.9976919 3.3367622 -0.72927755 1.2698774
-0.34946826 -0.8087862 0.98204833 0.66851395 -0.031767033 2.261938 0.89607257 -1.0919219
0.17262124 2.1344237 2.9886656 2.0693517 1.2935033 1.3932885 -0.82677066 0.21264201
-0.2588588 -0.33568844 2.1254072 -0.42772138 0.757303 0.97296745 -0.9678238 -1.3276191
0.29562807 3.0314014 0.74727666 -0.15822917 1.7779036 1.4812515 -0.8405114 3.7847497
2.8291342 -0.96411073 2.7440288 0.71791494 -1.9522387 2.4074726 1.6793126 0.39613816
1.3424004 0.4074492 -0.14476126 0.044350922 1.3476393 1.724652 0.7432784 3.3957896
4.2498856 -0.1439513 0.6406 2.017571 0.24427722 -0.6978759 -1.5598221 0.53695405
1.877054 -0.8014258 0.1256337 3.0470545 0.63457257 -0.23747347 -1.2001504 4.035865
0.1704251 2.982909 1.4977138 0.28907502 2.2565076 -1.1820148 0.43562898 1.305687
0.8763135 -0.46379516 -1.5275321 1.4081048 -1.1860676 1.7397604 0.9528094 1.722334
1.7223248 1.8924572 -0.8026849 0.4722393 1.091588 -0.047842048 -0.7330482 1.064068
0.2861724 1.8031168 0.4534866 0.3482368 1.2116749 1.1506746 0.021395937 1.5977006
1.1246358 0.80085236 0.59585035 1.4834011 -0.51875895 1.2874645 0.8980455 0.50781095
-1.4227432 -0.08090357 -0.10987197 2.3494828 2.0766695 -0.009198261 -0.18316813 -1.3005517
-0.8097293 -0.21971743 0.4138654 0.783461 -0.9650632 1.2162606 -0.79792637 1.0645016
0.9298458 4.6216 0.57384974 3.316985 1.4512933 0.9417769 0.54975104 -0.53698075
-1.8969002 1.2472183 0.17047499 0.5524932 2.6816597 1.5006809 -0.56591004 0.42981538
0.6517165 1.4930917 2.0964437 3.284358 2.2946932 2.3163247 -1.2672505 4.1246004
00000000: cb68 a43f 0e92 c0bf d8c3 1940 9ff8 bb3e
00000010: 0764 d53f b1c7 dd3f e5ca 3bbe 3f4a f73e
00000020: d0d3 cc3e 775d 703f 39f9 62bd 6394 8d3d
00000030: 4e51 14bf 6070 8c3f 8d80 f3be 4e77 903f
00000040: a011 953f 3e98 013f a34d 47bf 6956 adbf
00000050: 4cd6 da3f 5a22 8a3f a49c b4be ef21 f03f
00000060: e612 e33f 5037 603f 4b3f 2c3f a766 2140
00000070: ec48 9b3f 871c 6b3f 2d50 1e3e c999 df3f
00000080: f29a 3040 965a cb3f 4199 0940 5da7 6e3f
00000090: 1d13 0ebe bc55 9c3f d2cf 893f 3338 913f
000000a0: ddc5 9f3e 4ddc ec3f d27a 9c3f 8be9 2540
000000b0: 7fbb c53f c752 113f 418a ec3f 5820 93bc
000000c0: aac7 983f 3dfb 2a40 84a1 903f 0251 943f
000000d0: 53de b33f 8a3c 5440 cd00 7fbe 20c6 353f
000000e0: 7a3a 0f40 898e e83f 99ce 663f 281a 5e3f
000000f0: 10e9 543f d755 0cbf 6a64 1340 f733 f53d
00000100: b0bc b23f df69 403f 909f 64be 4ca2 97bf
00000110: 66ac 0f3e 5415 5e3f 02b9 863e 5b45 1340
00000120: 8873 863e ef06 4540 2f39 a6bf fe79 013f
00000130: 98eb 0fbe bb61 3ebf c173 bc3f 0c52 cc3f
00000140: d60f 1d3f 06e6 893f d4f0 0e40 91a7 793f
00000150: 1441 2c3e 05aa 783e 08b1 2e3f 9fc2 cfbe
00000160: ac90 623f 023b 4d3e 803c f13e d7c7 a63f
00000170: 7a18 483c cc28 f33f 3a5b ed3f f401 0cbf
00000180: 30ce e13f b449 fdbf 5f67 a9be cbc2 94bf
00000190: 82a7 4f3f 2df2 cc3e af1b a040 e8da 1e40
000001a0: 3980 dd3e abe6 3f3d 8c1d 62be e36e 5d40
000001b0: 2fda 3f40 838d 5540 efb1 3abf 588b a23f
000001c0: 81ed b2be 9d0c 4fbf 8567 7b3f bb23 2b3f
000001d0: 261e 02bd 98c3 1040 0365 653f 19c4 8bbf
000001e0: 9fc3 303e 669a 0840 4c46 3f40 4270 0440
000001f0: 8491 a53f 4757 b23f 3ea7 53bf d4be 593e
00000200: 2489 84be 5bdf abbe ac06 0840 4cfe dabe
00000210: 9cde 413f 6514 793f 4dc3 77bf 6cef a9bf
00000220: 905c 973e 7b02 4240 864d 3f3f d406 22be
00000230: 5892 e33f a699 bd3f c12b 57bf 5739 7240
00000240: 8910 3540 f6cf 76bf 2b9e 2f40 46c9 373f
00000250: f5e2 f9bf 0814 1a40 b7f3 d63f 9fd2 ca3e
00000260: c7d3 ab3f 2e9d d03e 4c3c 14be 50a9 353d
00000270: 727f ac3f 66c1 dc3f 7e47 3e3f 9e54 5940
00000280: 10ff 8740 f867 13be 5dfe 233f e21f 0140
00000290: cf23 7a3e ffa7 32bf 40a8 c7bf d275 093f
000002a0: 4e43 f03f 3e2a 4dbf 1fa6 003e f102 4340
000002b0: 5973 223f 3f2c 73be 879e 99bf ce25 8140
000002c0: eb83 2e3e fbe7 3e40 16b5 bf3f a401 943e
000002d0: 9f6a 1040 434c 97bf c30a df3e c020 a73f
000002e0: 1556 603f 8f76 edbe 2c86 c3bf c73c b43f
000002f0: 10d1 97bf 78b0 de3f 51eb 733f 7175 dc3f
00000300: 2475 dc3f 0a3c f23f c27c 4dbf 59c9 f13e
00000310: 28b9 8b3f 06f6 43bd 0ca9 3bbf 6133 883f
00000320: 3085 923e 88cc e63f 652f e83e 184c b23e
00000330: 2a18 9b3f 4e49 933f 8846 af3c 7481 cc3f
00000340: 11f4 8f3f a904 4d3f a689 183f 16e0 bd3f
00000350: 63cd 04bf a3cb a43f 4fe6 653f e6ff 013f
00000360: 731c b6bf c5b0 a5bd 8e04 e1bd ed5d 1640
00000370: 27e8 0440 4eb4 16bc 6d90 3bbe 7a78 a6bf
00000380: 6b4a 4fbf 9bfd 60be 2ae6 d33e e690 483f
00000390: 620e 77bf 6dae 9b3f e744 4cbf 9741 883f
000003a0: 600a 6e3f 26e4 9340 d1e7 123f 7b49 5440
000003b0: fbc3 b93f 4a18 713f 7cbc 0c3f 9277 09bf
000003c0: a0cd f2bf d9a4 9f3f ff90 2e3e 3270 0d3f
000003d0: 50a0 2b40 5016 c03f 7bdf 10bf c310 dc3e
000003e0: e4d6 263f a11d bf3f 222c 0640 ec32 5240
000003f0: 41dc 1240 aa3e 1440 4435 a2bf bafc 8340

l1.bias f4 [8]
1.1211356 1.0215172 0.552519 0.6268273 0.24231994 0.5410649 0.7783271 0.17842881
00000000: 5f81 8f3f 13c1 823f e371 0d3f c177 203f
00000010: b822 783e 3b83 0a3f 7240 473f 0bb6 363e

l2.weight f4 [8, 8]
-1.933716 -0.15966783 0.85694575 1.8350406 0.117385656 2.047543 1.2207735 -0.45669055
2.0132585 2.9510362 -1.364551 2.586449 -0.8529396 -1.9618795 0.65591115 -0.18388633
-0.9879107 2.2968884 2.4073737 -1.5340692 3.6565323 -0.64206684 -1.8905994 3.9407725
1.6374677 -1.0531766 -1.0725671 1.2673401 1.4448367 2.2995856 -2.3381758 0.34006962
3.325473 0.8631052 0.83590066 -1.2586555 -0.991412 0.89472485 -1.2946132 -1.8633996
0.10780611 1.6914628 -2.8341038 1.7210939 -1.6274122 1.3171088 2.81408 1.0566565
1.3970752 -1.4531509 3.0867832 3.2607012 -2.0395288 0.31600755 -1.3067477 4.713005
1.6730572 -1.2712767 1.6743492 -2.8298268 -0.07325105 0.44391516 2.7692308 -0.58613575
00000000: 0284 f7bf f77f 23be cc60 5b3f 9ce2 ea3f
00000010: e467 f03d f20a 0340 4e42 9c3f 58d3 e9be
00000020: 3ad9 0040 c7dd 3c40 9ba9 aebf 6188 2540
00000030: 405a 5abf de1e fbbf cbe9 273f b34c 3cbe
00000040: b7e7 7cbf 3800 1340 6912 1a40 615c c4bf
00000050: a004 6a40 7e5e 24bf 29ff f1bf 9e35 7c40
00000060: 8b98 d13f 7ece 86bf e149 89bf 3338 a23f
00000070: 69f0 b83f 692c 1340 aca4 15c0 9b1d ae3e
00000080: 8dd4 5440 76f4 5c3f 96fd 553f a01b a1bf
00000090: 2dcd 7dbf b00c 653f e3b5 a5bf e183 eebf
000000a0: 73c9 dc3d da81 d83f f561 35c0 ce4c dc3f
000000b0: 0b4f d0bf 0597 a83f e319 3440 8540 873f
000000c0: 5cd3 b23f d900 babf db8d 4540 54af 5040
000000d0: a487 02c0 becb a13e 8243 a7bf f0d0 9640
000000e0: bd26 d63f 32b9 a2bf 1351 d63f e21b 35c0
000000f0: a604 96bd d948 e33e 143b 3140 fe0c 16bf

l2.bias f4 [8]
-0.3353431 0.17809793 -0.30057052 -0.6249484 0.93461496 0.6248467 0.08153018 -0.02287111
00000000: 17b2 abbe 4e5f 363e 61e4 99be 9efc 1fbf
00000010: ed42 6f3f f4f5 1f3f 4cf9 a63d 325c bbbc

l3.weight f4 [252, 8]
-0.6536106 0.29950163 -2.2163053 -12.078655 -0.6404733 -0.94682604 -0.25261807 -0.7441504
0.53682405 -9.163987 -3.59248 0.43150702 -4.9245296 -1.0743655 -1.0708371 -0.4017508
-3.7517412 -0.6031324 -3.338636 -0.4744776 -0.44564158 -0.82931054 -0.0646909 -0.5678883
-1.3471801 -5.7796416 -2.6275766 0.2960533 -0.5614566 -3.7201493 -0.18185094 0.2998938
-3.8287988 0.7074858 -1.8483218 -11.304167 0.33927754 -5.2446966 0.13531466 -0.5719092
-5.4082723 -1.0619268 -0.73512226 -2.7189567 0.029913928 -5.026941 -0.5547577 0.12816396
-3.097711 0.7868545 -2.8503222 -2.1762729 -0.4172844 -3.3413713 0.9329874 -2.8156745
-1.8359177 0.4597079 -8.266975 -2.9089298 -0.4501968 -0.98470527 0.64357626 -1.3621974
-4.187717 -2.1995168 -1.9983027 -0.031057397 -0.17941761 -5.6622295 0.7882181 -1.712288
-7.2314253 0.43876418 -0.54428864 -2.3991358 -0.42872673 -0.21186875 -1.2272372 -1.995568
-6.267409 -0.5694733 -1.4103092 -0.00959906 -0.5961192 -1.3000449 -0.25273272 -1.4283634
-5.3981705 0.5305039 -3.76174 -2.1425323 0.23694831 -1.4517351 0.17428322 -1.3772783
-8.402828 0.007343676 -1.4945458 -1.3367925 -0.07032275 -0.32321584 -0.41783044 -1.9860263
-4.7979198 0.5382836 -3.8239868 -0.45227188 -0.013473501 -4.246897 0.29759708 -1.7644972
-5.5885935 -0.16373505 -2.425933 -5.9724584 1.3260077 -8.006608 -0.77538437 0.41416293
-4.3013425 0.3219653 -1.936618 -2.196472 -1.4837229 -0.7114938 0.38142297 -1.4971894
-2.4656844 -3.8616474 -3.8066962 -1.2824966 -0.20888676 -1.8257545 0.93635 -0.5476953
-2.7107747 -1.5300204 -8.972414 -1.7215168 -0.56464887 -0.8120191 0.9661677 -0.2310802
-1.6791501 -0.816808 -3.1595438 -9.776411 0.13656926 -1.2465665 0.056049153 0.06451648
-6.639771 -0.12965077 -0.3645159 -8.500424 -0.35695893 -0.8031743 -1.2935696 -0.36804828
-6.079467 0.022426816 -0.5939571 -4.9579277 -1.8861413 0.13468362 -0.100878246 -1.9647799
-0.5584612 -1.5387346 -4.7091303 -0.050423715 -1.1677934 -1.9603148 0.25967154 -0.5542395
-4.805424 0.85725385 -0.96578443 -2.6943464 -1.3548865 -3.0897503 0.1020174 -1.4343462
-2.5595949 0.2535706 -2.1941032 -7.806089 -1.8583425 -4.2745695 1.1602151 -1.4751239
-4.1393347 -0.8775764 -1.5048712 -2.5491574 -0.7791363 -0.51658297 0.043321814 -0.13701896
-4.148452 -4.3145976 -2.285732 -1.0151056 1.1285233 -7.0307193 0.47509784 -0.73181546
-4.683874 0.031896204 -5.3229117 -1.982223 0.21817742 0.11252534 -1.1307147 0.07135691
-4.370676 0.035437535 -2.221131 -8.5369215 -0.2331198 -1.0304294 0.48253867 -0.74808407
-6.6423035 -0.07919695 -2.5791454 -1.6167338 -0.13595468 -2.7667062 0.33443525 -0.4761849
-1.8342552 -0.0838881 -4.1367426 -2.2236266 -2.0112252 -0.66787547 0.9787181 -1.9809703
-1.9593843 -0.87911904 -4.1322412 -3.5283203 -1.0251384 -1.4375381 1.0207392 -0.52264935
-3.4906957 0.5933442 -2.1088796 -3.2186456 -0.52834666 -0.36944458 0.069571234 -2.4120812
00000000: 0653 27bf 4758 993e f2d7 0dc0 2c42 41c1
00000010: 0ff6 23bf 3163 72bf 2857 81be a480 3ebf
00000020: 4d6d 093f b19f 12c1 31eb 65c0 7dee dc3e
00000030: bf95 9dc0 cf84 89bf 3111 89bf 48b2 cdbe
00000040: 871c 70c0 e366 1abf 36ac 55c0 baee f2be
00000050: 222b e4be b24d 54bf aa7c 84bd 2161 11bf
00000060: 6670 acbf d3f2 b8c0 372a 28c0 4c94 973e
00000070: 9fbb 0fbf ed16 6ec0 2237 3abe ae8b 993e
00000080: 0a0b 75c0 ca1d 353f cf95 ecbf dedd 34c1
00000090: c9b5 ad3e 8ed4 a7c0 ed8f 0a3e a468 12bf
000000a0: 9110 adc0 38ed 87bf f930 3cbf 6303 2ec0
000000b0: 0e0e f53c b3dc a0c0 9a04 0ebf 6a3d 033e
000000c0: e640 46c0 4c6f 493f ae6b 36c0 0e48 0bc0
000000d0: 4da6 d5be 07d9 55c0 43d8 6e3f 0334 34c0
000000e0: 5aff eabf d55e eb3e 8845 04c1 e82b 3ac0
000000f0: 3280 e6be a515 7cbf 6ac1 243f 7c5c aebf
00000100: c701 86c0 e2c4 0cc0 62c8 ffbf 156c febc
00000110: 40b9 37be fc30 b5c0 a9c8 493f 412c dbbf
00000120: d667 e7c0 b3a5 e03e 8056 0bbf 718b 19c0
00000130: 1282 dbbe 1ff4 58be 1c16 9dbf c66e ffbf
00000140: 9d8e c8c0 01c9 11bf 0385 b4bf 6045 1dbc
00000150: 459b 18bf df67 a6bf 2f66 81be 9dd4 b6bf
00000160: d0bd acc0 1bcf 073f 59c0 70c0 401f 09c0
00000170: 94a2 723e 75d2 b9bf 4d77 323e a84a b0bf
00000180: fc71 06c1 38a3 f03b 474d bfbf 041c abbf
00000190: 6005 90bd 8c7c a5be dfed d5be 1c36 febf
000001a0: 8f88 99c0 f4cc 093f 33bc 74c0 2e90 e7be
000001b0: f6bf 5cbc 95e6 87c0 a55e 983e 0bdb e1bf
000001c0: c2d5 b2c0 29aa 27be 7c42 1bc0 611e bfc0
000001d0: 9fba a93f 111b 00c1 977f 46bf 2a0d d43e
000001e0: 99a4 89c0 a3d8 a43e 19e3 f7bf ff92 0cc0
000001f0: a2ea bdbf 7524 36bf df49 c33e e7a3 bfbf
00000200: c6cd 1dc0 3b25 77c0 e9a0 73c0 d928 a4bf
00000210: 69e6 55be 53b2 e9bf a2b4 6f3f c235 0cbf
00000220: 557d 2dc0 b5d7 c3bf 028f 0fc1 aa5a dcbf
00000230: d48c 10bf 7ce0 4fbf c456 773f 4aa0 6cbe
00000240: 64ee d6bf 541a 51bf f735 4ac0 2e6c 1cc1
00000250: d0d8 0b3e 7e8f 9fbf cc93 653d 3721 843d
00000260: 0179 d4c0 2cc3 04be d4a1 babe bd01 08c1
00000270: 52c3 b6be d59c 4dbf b093 a5bf d370 bcbe
00000280: fe8a c2c0 71b8 b73c 930d 18bf 58a7 9ec0
00000290: 146d f1bf 81ea 093e 4199 cebd e87d fbbf
000002a0: 50f7 0ebf 41f5 c4bf 32b1 96c0 1989 4ebd
000002b0: 417a 95bf 98eb fabf abf3 843e a4e2 0dbf
000002c0: 09c6 99c0 fd74 5b3f a63d 77bf 2c70 2cc0
000002d0: ec6c adbf 78be 45c0 80ee d03d a898 b7bf
000002e0: 67d0 23c0 01d4 813e 306c 0cc0 7bcb f9c0
000002f0: 2bde edbf 46c9 88c0 ee81 943f dcd0 bcbf
00000300: 6e75 84c0 d9a8 60bf 9f9f c0bf 6525 23c0
00000310: 7a75 47bf c83e 04bf 3772 313d b34e 0cbe
00000320: 1ec0 84c0 2f11 8ac0 6f49 12c0 fbee 81bf
00000330: 7473 903f a7fb e0c0 0640 f33e 4258 3bbf
00000340: 4ce2 95c0 98a5 023d 4b55 aac0 7cb9 fdbf
00000350: e769 5f3e af73 e63d 42bb 90bf 9223 923d
00000360: 94dc 8bc0 f326 113d 0327 0ec0 3b97 08c1
00000370: f5b6 6ebe 1ce5 83bf 4f0f f73e 7082 3fbf
00000380: c08d d4c0 0332 a2bd b810 25c0 22f1 cebf
00000390: b437 0bbe b711 31c0 193b ab3e 82ce f3be
000003a0: e0c8 eabf 86cd abbd 3260 84c0 e64f 0ec0
000003b0: eab7 00c0 e3f9 2abf 458d 7a3f 6f90 fdbf
000003c0: 1bcd fabf f20d 61bf 523b 84c0 00d0 61c0
000003d0: bc37 83bf 4001 b8bf 95a7 823f 59cc 05bf
000003e0: 8f67 5fc0 68e5 173f e2f7 06c0 4afe 4dc0
000003f0: ba41 07bf d727 bdbe 5d7b 8e3d 8a5f 1ac0

l3.bias f4 [252]
-4.0794477 -4.5430675 -1.3029943 -4.263831 -2.6880107 -3.4849634 -1.2561504 -2.0371826
-1.4549214 -1.3139528 0.40508455 -1.2151185 -1.8664026 0.031600885 0.70842516 -3.082358
-2.1603029 -1.4902267 -1.4089954 -2.0660694 -2.3586154 -1.2332859 -2.4958436 -5.0805955
-3.3111193 -0.9235439 0.1979611 -1.8848759 0.45013517 -1.5700675 -2.1281316 -2.1216035
-0.64396423 -0.9068945 -1.2898551 -0.87323827 -4.0810046 -0.96545625 -0.48715708 -2.102583
0.5396286 -2.0274525 -1.790085 -2.285827 -3.629783 -0.6208111 -0.9713091 -1.08904
-2.4826043 -1.917068 -3.1783123 -3.0464375 -0.77408665 -0.5761994 -3.0645409 -2.6290722
-2.4938097 -1.3834207 -1.3978149 0.22286813 -1.9712647 0.026473818 -3.9087684 -2.6614282
-1.9453372 -3.3240783 -5.512445 -3.5007615 -3.3448246 -5.51143 -2.4892025 -2.2391906
-1.3793987 -3.9735157 -4.8737307 -4.0645204 -4.189025 -1.9605001 0.017354393 -4.2085423
-1.3060633 -1.708926 -2.415155 -1.3510609 -2.7001219 -4.806937 -0.71612906 -3.3990223
-1.5021044 -3.6832447 -3.1001883 -2.681538 -4.512598 -2.2971647 -4.4472437 -4.7977285
-3.4702404 -3.8415132 -0.04152261 -4.244466 -4.7381644 -1.8326238 -1.4983623 -1.4369843
-3.5900202 0.29891995 -0.69922936 -4.2953033 -3.9309893 -3.7828605 -2.874541 -2.5895917
-2.5882192 0.02263724 -4.497932 -2.5793273 -1.4437839 -1.198221 -1.7898792 -5.4148984
-2.822743 0.17409924 -4.40087 -4.5677333 -0.60437226 -2.2451062 -1.8772503 0.54058903
-3.5368593 -1.0600891 -3.0564225 -5.759313 0.011971378 -1.0438058 -0.92099965 -4.2614756
-3.230881 -3.0140238 -3.1034167 -1.9716121 -4.198393 -2.984394 -4.7802963 -4.4749775
-2.2216413 -2.9968684 -5.1202803 -4.1048775 -2.5897253 -1.1323661 -2.1437626 -1.4053288
-3.202616 -4.398704 -3.2774208 -4.823404 -1.1303756 -1.7612708 -3.6255198 -3.057895
-2.4178114 -3.2082076 -3.5433502 -2.7223163 -3.8841474 -3.833907 -3.1231532 -3.2209282
-4.6858163 -3.8599737 -0.9630777 -1.2727284 -1.675034 -4.1592035 -3.0824008 -1.8353792
-3.7731285 -4.7768216 -3.9287803 -4.160152 -2.93338 -6.1566854 -2.9575624 -4.2000217
-2.9260647 -1.3938376 -4.7469797 -2.632034 -1.7870355 -1.4960268 -3.3351665 -2.6870673
-0.22940521 -1.4022931 -4.3901696 -3.5251606 0.07798524 -2.567185 -3.9931657 -1.1381434
-2.383545 -3.7017744 -2.256561 -1.4321802 -1.7134452 -0.7356944 -1.7397449 -2.2751527
-1.8309627 -1.3900601 -1.2814136 -1.7267087 -2.9469995 -4.4814477 -0.11209633 -1.677618
-3.2324257 -3.118541 -4.19299 -3.3440185 -0.92662793 -1.8214483 -3.7384613 -2.663778
-2.2568684 -4.2614484 0.50737834 -1.7801948 -1.7941562 -1.9171057 -4.911158 -2.0911012
-4.58833 -2.9969156 -3.7356675 -0.74368584 -2.6556227 -2.6639125 -2.95167 -2.9999077
2.5062726 -2.0095756 -4.765029 -4.545478 -3.942033 -1.6259419 -3.961205 -2.4007328
-5.997397 0.16599119 -2.085142 -0.09935717
00000000: d68a 82c0 cf60 91c0 84c8 a6bf 4e71 88c0
00000010: 5e08 2cc0 a409 5fc0 89c9 a0bf 3361 02c0
00000020: dd3a babf 9b2f a8bf 3e67 cf3e 0189 9bbf
00000030: 48e6 eebf ee6f 013d 5a5b 353f 5a45 45c0
00000040: 6742 0ac0 c0bf bebf f659 b4bf 7b3a 04c0
00000050: 8ef3 16c0 50dc 9dbf e7bb 1fc0 3d94 a2c0
00000060: 61e9 53c0 5f6d 6cbf 51b6 4a3e 9d43 f1bf
00000070: 1e78 e63e f9f7 c8bf 4f33 08c0 5ac8 07c0
00000080: d7da 24bf 3d2a 68bf f919 a5bf 8b8c 5fbf
00000090: 9797 82c0 2428 77bf a76c f9be b890 06c0
000000a0: 1a25 0a3f c8c1 01c0 8121 e5bf fd4a 12c0
000000b0: 5d4e 68c0 7aed 1ebf b7a7 78bf aa65 8bbf
000000c0: fde2 1ec0 7c62 f5bf 7869 4bc0 d5f8 42c0
000000d0: 8b2a 46bf ce81 13bf 7021 44c0 b842 28c0
000000e0: 949a 1fc0 ee13 b1bf 99eb b2bf 8b37 643e
000000f0: 6752 fcbf 9fdf d83c 4329 7ac0 d754 2ac0
00000100: cf00 f9bf b3bd 54c0 f365 b0c0 7a0c 60c0
00000110: 9b11 56c0 a25d b0c0 184f 1fc0 e64e 0fc0
00000120: 2390 b0bf 154e 7ec0 9af5 9bc0 8d10 82c0
00000130: 7e0c 86c0 abf1 fabf cd2a 8e3c 61ac 86c0
00000140: 152d a7bf 16be dabf e691 1ac0 90ef acbf
00000150: ccce 2cc0 6ed2 99c0 3c54 37bf 9589 59c0
00000160: f544 c0bf 48ba 6bc0 7c69 46c0 529e 2bc0
00000170: 3467 90c0 bf04 13c0 d24f 8ec0 fe86 99c0
00000180: 6b18 5ec0 5adb 75c0 9d13 2abd aad2 87c0
00000190: 0b9f 97c0 6b93 eabf 56ca bfbf 1aef b7bf
000001a0: e4c2 65c0 090c 993e b200 33bf 2073 89c0
000001b0: 5495 7bc0 631a 72c0 7bf8 37c0 dfbb 25c0
000001c0: 62a5 25c0 bc71 b93c 0fef 8fc0 b313 25c0
000001d0: e9cd b8bf 4e5f 99bf c31a e5bf d946 adc0
000001e0: d2a7 34c0 1247 323e edd3 8cc0 df2a 92c0
000001f0: 24b8 1abf d2af 0fc0 bd49 f0bf 0b64 0a3f
00000200: e75b 62c0 00b1 87bf 6d9c 43c0 4b4c b8c0
00000210: 9923 443c 6e9b 85bf a2c6 6bbf 025e 88c0
00000220: c1c6 4ec0 c4e5 40c0 619e 46c0 c95d fcbf
00000230: 3c59 86c0 5000 3fc0 30f8 98c0 0433 8fc0
00000240: 5f2f 0ec0 b1cc 3fc0 56d9 a3c0 285b 83c0
00000250: 0fbe 25c0 5ff1 90bf 6833 09c0 d0e1 b3bf
00000260: a9f7 4cc0 2fc2 8cc0 43c1 51c0 5359 9ac0
00000270: 26b0 90bf 5271 e1bf 8408 68c0 8db4 43c0
00000280: 6cbd 1ac0 4653 4dc0 40c6 62c0 6e3a 2ec0
00000290: df95 78c0 bb5e 75c0 bee1 47c0 b023 4ec0
000002a0: 35f2 95c0 cf09 77c0 438c 76bf c4e8 a2bf
000002b0: 8467 d6bf 3218 85c0 0e46 45c0 b5ed eabf
000002c0: f07a 71c0 b9db 98c0 2371 7bc0 f71f 85c0
000002d0: 7fbc 3bc0 9103 c5c0 b448 3dc0 9466 86c0
000002e0: a544 3bc0 4569 b2bf 42e7 97c0 3f73 28c0
000002f0: 94bd e4bf ce7d bfbf 5e73 55c0 e9f8 2bc0
00000300: 33e9 6abe 577e b3bf 457c 8cc0 3b9c 61c0
00000310: bab6 9f3d c24c 24c0 0790 7fc0 afae 91bf
00000320: 008c 18c0 dfe9 6cc0 7f6b 10c0 ae51 b7bf
00000330: 2c52 dbbf 7856 3cbf f6af debf 1a9c 11c0
00000340: fc5c eabf 7ded b1bf 5c05 a4bf ca04 ddbf
00000350: a49b 3cc0 0568 8fc0 c392 e5bd 30bc d6bf
00000360: 10e0 4ec0 2d96 47c0 f92c 86c0 6604 56c0
00000370: 7d37 6dbf 3825 e9bf f342 6fc0 577b 2ac0
00000380: 8870 10c0 c95d 88c0 8ce3 013f 6cdd e3bf
00000390: e9a6 e5bf b863 f5bf 3528 9dc0 9ad4 05c0
000003a0: 99d3 92c0 77cd 3fc0 2d15 6fc0 3262 3ebf
000003b0: b9f5 29c0 8b7d 2ac0 29e8 3cc0 7dfe 3fc0
000003c0: c566 2040 e39c 00c0 1e7b 98c0 8e74 91c0
000003d0: 454a 7cc0 dd1e d0bf 6284 7dc0 9ba5 19c0
000003e0: adea bfc0 98f9 293e f772 05c0 c67b cbbd
